Epoch ; 1
Model: "sequential"
_________________________________________________________________
Layer (type)                 Output Shape              Param #   
=================================================================
conv2d (Conv2D)              (None, 28, 28, 128)       6400      
_________________________________________________________________
batch_normalization (BatchNo (None, 28, 28, 128)       512       
_________________________________________________________________
conv2d_1 (Conv2D)            (None, 28, 28, 128)       802944    
_________________________________________________________________
dropout (Dropout)            (None, 28, 28, 128)       0         
_________________________________________________________________
max_pooling2d (MaxPooling2D) (None, 14, 14, 128)       0         
_________________________________________________________________
conv2d_2 (Conv2D)            (None, 14, 14, 256)       295168    
_________________________________________________________________
batch_normalization_1 (Batch (None, 14, 14, 256)       1024      
_________________________________________________________________
conv2d_3 (Conv2D)            (None, 14, 14, 256)       590080    
_________________________________________________________________
dropout_1 (Dropout)          (None, 14, 14, 256)       0         
_________________________________________________________________
max_pooling2d_1 (MaxPooling2 (None, 7, 7, 256)         0         
_________________________________________________________________
conv2d_4 (Conv2D)            (None, 7, 7, 256)         590080    
_________________________________________________________________
batch_normalization_2 (Batch (None, 7, 7, 256)         1024      
_________________________________________________________________
conv2d_5 (Conv2D)            (None, 7, 7, 256)         590080    
_________________________________________________________________
dropout_2 (Dropout)          (None, 7, 7, 256)         0         
_________________________________________________________________
flatten (Flatten)            (None, 12544)             0         
_________________________________________________________________
dense (Dense)                (None, 256)               3211520   
_________________________________________________________________
dense_1 (Dense)              (None, 10)                2570      
=================================================================
Total params: 6,091,402
Trainable params: 6,090,122
Non-trainable params: 1,280
_________________________________________________________________
Epoch 1/70
1050/1050 [==============================] - 23s 22ms/step - loss: 0.6378 - accuracy: 0.8060 - val_loss: 0.4323 - val_accuracy: 0.8761
Epoch 2/70
1050/1050 [==============================] - 23s 22ms/step - loss: 0.1745 - accuracy: 0.9487 - val_loss: 0.2480 - val_accuracy: 0.9187
…
